attacks_adv/model.pth (torch, 89871 bytes, 8 tensors)

conv1.weight f4 [10, 1, 5, 5]
000000 f2 dc f4 3d 99 9f fe bd 61 d3 20 be fc da 53 bd
       0.119562045 -0.124327846 -0.15705635 -0.05172251
000010 5e 18 8b be 3b 81 2c 3e 27 15 0f bd c5 5b 35 3d
       -0.27167028 0.16846173 -0.03493228 0.04427697
000020 b8 c4 9f bb 14 8d 0e bd ac 7b 27 3e e6 1b 02 3e
       -0.0048757456 -0.03480251 0.16355771 0.12705955
000030 4b f0 3c 3e e8 1f 29 3d c0 ad 92 3d 81 35 37 3d
       0.1845104 0.041290194 0.071620464 0.04472876
000040 c6 f3 09 3e e9 c3 e7 3d bd 4d 8c 3e 01 44 24 3e
       0.13471898 0.11316664 0.2740306 0.16041566
000050 71 17 d6 bd 8c 36 17 be f6 e9 b6 bd e0 07 fe bd
       -0.1045369 -0.14766902 -0.08931343 -0.12403846
000060 7f ca 39 bd 8e 4c bc 3d 21 91 8d 3e 6c 70 0f 3e
       -0.04535913 0.09194289 0.27649787 0.1400773
000070 3e c0 b3 be 2a 20 c1 bd 56 8e 30 3e c8 43 b7 3e
       -0.35107607 -0.09429963 0.17241797 0.357939
000080 fe 80 04 3e 73 70 ad be 9f aa b3 be a6 20 ac 3d
       0.12939832 -0.33874854 -0.3509111 0.08404665
000090 3a e5 bf 3e 40 58 62 bd 3e 13 9c bd 88 91 6c be
       0.37479573 -0.055259943 -0.07620858 -0.23102391
0000a0 48 7c b4 3e 98 05 9e 3d 70 2b 27 3e 11 44 8a bd
       0.3525107 0.07715911 0.16325164 -0.06751264
0000b0 88 5a 21 be 74 cb 6c 3e 07 9a d9 3c d0 3c 00 3e
       -0.15757191 0.23124486 0.026562704 0.12523198
0000c0 cd 41 10 bd 3c e6 cd bb 33 f8 97 be 72 6b 1e be
       -0.035219003 -0.0062835496 -0.29681548 -0.15470675
0000d0 57 fe 1a 3e bb 04 9f 3d c8 62 9d 3e f1 7a a8 3d
       0.15136085 0.07764574 0.30739427 0.08226574
0000e0 5b 5a 4a 3b 8d d6 be 3c 14 ad 99 3e 93 59 0f 3e
       0.003087661 0.023295665 0.3001486 0.13999014
0000f0 d7 78 f1 bd 8f 15 6e 3e 55 db a5 3e 5d 85 a6 3e
       -0.117906265 0.23250411 0.323939 0.32523623
000100 37 cb f4 bd fe ea 0b 3d b6 d0 f2 3d de 38 34 3e
       -0.11952823 0.034159653 0.11856215 0.17599818
000110 cf 57 dd bd 51 84 51 be e1 50 19 3e e7 63 f9 3c
       -0.10807764 -0.20460631 0.14972259 0.030443145
000120 02 06 1e 3e 0c 13 2c bc da 3e 30 bb f0 53 de 3d
       0.1543198 -0.010502588 -0.0026892931 0.108558536
000130 93 26 43 3e 1c 00 66 3e 05 82 af bd 4e 50 3b 3e
       0.19057684 0.22460979 -0.08569721 0.18292353
000140 ec 81 13 be 7f af da bd ff 34 65 3d eb 52 34 3c
       -0.1440503 -0.106780045 0.055958744 0.011006097
000150 de 19 22 3e b1 8d 0d be 1c d8 47 be 1a 32 b9 3d
       0.1583018 -0.13823582 -0.19516033 0.09042759
000160 17 47 99 bd 70 56 af 3d 28 7a 42 3d 51 4b 4e be
       -0.074842624 0.085614085 0.04747978 -0.20145918
000170 4d 5a 8c bd bd 1d 1f bd 8a 42 47 be dc a9 ac bd
       -0.06853161 -0.03884672 -0.19458976 -0.084308356
000180 df c4 3c 3d da ed 47 bd da 0b 20 be 17 96 ec bd
       0.04608619 -0.048810817 -0.15629521 -0.11552065
000190 dc 03 92 3e 70 a2 86 3d a7 5b 59 3e 29 b5 cb 3d
       0.2851857 0.06573951 0.21226369 0.09946663
0001a0 19 fc 50 be 06 ef 27 bd 76 72 e1 3e 6e 19 80 3e
       -0.20408668 -0.040999435 0.4403264 0.250194
0001b0 74 4c 70 3e 74 44 91 3d d1 90 84 3e 56 f5 05 3f
       0.23466665 0.070931345 0.25891736 0.5232748
0001c0 b2 de 00 3f d9 08 f2 3b a2 8e 0e 3e 14 85 89 3e
       0.50339806 0.0073863086 0.13921598 0.26859343
0001d0 c3 36 bb 3e 65 4f 89 3e ec 86 59 bd 8f 3a 00 bd
       0.36565217 0.26818386 -0.053107187 -0.031305846
0001e0 95 ab 38 be 04 85 95 3c 00 ad 4a 3e 40 33 d0 bd
       -0.18034203 0.018251903 0.19792557 -0.10166025
0001f0 a8 aa 55 3e 20 3b 12 be 2e b9 7a be cf cb 42 bd
       0.20865881 -0.14280367 -0.24484703 -0.04755765
000200 51 05 8d 3e 0d dc c0 3e 97 dc c6 bd db e0 a2 3d
       0.2754312 0.37667885 -0.09710043 0.07953044
000210 f0 6d 9a 3e 03 2e c2 3e 87 4c 95 3e 3f ae 57 3e
       0.30162 0.3792573 0.29159948 0.21062563
000220 01 9e 46 3e 48 df 36 3e b9 3d 48 3d c2 c1 b0 bd
       0.19396211 0.17858613 0.04888699 -0.08630706
000230 07 02 8e bd 7e a8 17 bc 1e 53 6f bd 30 91 46 3e
       -0.069339804 -0.00925648 -0.058428876 0.19391322
000240 15 e3 fc 3d 1d 2e a3 bd 16 19 1d 3d c3 d3 a4 3d
       0.12348 -0.0796778 0.038354002 0.08048203
000250 7e f0 3d 3e 24 e7 3f 3e 06 a6 ca bd 3f 74 21 3e
       0.18548772 0.18740517 -0.09894948 0.15767
000260 aa cd 03 bd 25 52 2a 3c e7 ad 3d be ee f9 30 be
       -0.03217856 0.010395561 -0.1852337 -0.1728284
000270 c5 b9 25 be 51 b1 c9 bd 49 3b 21 3e 82 6e 8f bd
       -0.16184147 -0.098482735 0.15745272 -0.070034996
000280 85 9d 3e be 42 c4 83 3d e8 d2 bb 3d 96 92 1b 3e
       -0.18614776 0.064339176 0.091710865 0.15192637
000290 f8 b4 01 be 1e 3b 52 3d 6d fc 25 bd 96 f7 98 3c
       -0.1266669 0.05132591 -0.040523935 0.018672746
0002a0 f7 ae f8 bd dd ab a4 bd 8a bf 15 bc 9b db 1d 3e
       -0.12142747 -0.08040593 -0.009139905 0.15415804
0002b0 1e 63 fd 3d 79 0d 09 3e 1f 76 8c 3e 87 14 1e 3e
       0.12372421 0.13384046 0.2743387 0.15437518
0002c0 e0 79 d1 3d 21 4c 03 bc a4 c8 2a be e3 f7 e6 3d
       0.10228324 -0.008013756 -0.16678101 0.112777494
0002d0 11 76 ad bd c1 2e 7b bd 34 f1 66 be 88 c5 16 be
       -0.08469785 -0.061323885 -0.22552949 -0.1472379
0002e0 28 f9 7b be ae 01 34 3e a0 97 2e be e0 23 3f be
       -0.24606764 0.17578766 -0.17050028 -0.18666029
0002f0 9c bb b8 bd 17 3f 33 be a5 f7 0f 3e 65 3a 0e 3d
       -0.09020159 -0.17504536 0.14059313 0.034723658
000300 cf a8 09 3c 64 f0 9a 3d 69 de 61 3e 45 78 29 bd
       0.0084020635 0.07565382 0.22057499 -0.041374464
000310 e8 65 8c 3e 09 c6 ad 3e 45 1c b2 3e 9d 7a d0 bc
       0.27421498 0.3394015 0.34787193 -0.025449092
000320 db 5e 94 3d f4 88 f4 bd 73 8f 6f 3e 08 12 82 3c
       0.07244655 -0.11940184 0.23394565 0.015877739
000330 fc aa 5f 3e 55 42 5a 3d e5 db 34 3d fe 75 cc 3d
       0.21842569 0.053285915 0.04415502 0.09983443
000340 07 b7 44 3e ae 68 83 3e 0e bf 62 3d 97 a0 b4 3d
       0.19210444 0.25665802 0.055357985 0.088196926
000350 55 15 ee bd 8c f9 8b 3e 5c 6b ad 3e 4f f9 e3 3d
       -0.116251625 0.27338827 0.3387097 0.11131536
000360 9e df ac 3d 48 74 3c be e2 84 86 bd 4f e2 83 3e
       0.08441089 -0.18403733 -0.06568314 0.25758597
000370 85 ba 99 be 70 de d4 3c f5 0c 89 be e4 43 5e be
       -0.30025116 0.025984973 -0.26767698 -0.21705586
000380 d8 e4 a8 3d 4b 13 d8 bd 6e 60 69 3c da ec 92 3e
       0.082467735 -0.10550555 0.014244182 0.28696328
000390 08 24 b1 3e fd 94 af 3e ae 46 c9 bc be b8 02 be
       0.34597802 0.34293357 -0.024569836 -0.12765786
0003a0 ea 48 a6 3e fa 95 fe 3d 99 13 42 3d c0 b7 bd 3c
       0.32477504 0.124309495 0.04738197 0.023158908
0003b0 a2 ed 22 be 98 c9 33 3e 20 69 4d 3e 1a 6c d1 bd
       -0.15910962 0.1755737 0.20059633 -0.10225697
0003c0 e5 60 59 be 87 60 87 bd 3c d7 8b 3d cc b8 06 3c
       -0.21228369 -0.06610208 0.06828162 0.00822277
0003d0 82 54 c5 bd 10 4d 83 bd c6 9c 83 be fa 69 3d be
       -0.09635259 -0.06411183 -0.25705546 -0.18497458
0003e0 e5 13 1b be 34 de 09 3e
       -0.15144308 0.1346367

conv1.bias f4 [10]
000000 67 a3 43 3e fa d7 8c bd cf d1 84 3d c9 5a 0a 3e
       0.19105302 -0.06877132 0.0648533 0.13511194
000010 4a 23 3f 3e 50 8d 88 bb 8e 6a 0d 3e 03 c0 12 3e
       0.18665805 -0.0041672364 0.13810179 0.14331059
000020 fc 17 33 3d ce 9c 45 3d
       0.043724045 0.048245244

conv2.weight f4 [20, 10, 5, 5]
000000 43 cb 45 3d c5 08 df 3c ed 2d ab bd 04 fb 25 3d
       0.04828955 0.027225861 -0.08358369 0.04052259
000010 aa 04 08 3d a9 76 3f bd 12 50 8c 3c a6 70 90 bd
       0.033207573 -0.046744023 0.017128024 -0.07052736
000020 05 80 88 3d e7 67 a5 bb 5f 18 06 3d 1c f2 1a 3d
       0.06665043 -0.0050477865 0.032738086 0.03782855
000030 b2 1d 32 3d 07 07 b8 3d 2f 93 f9 3b b7 a8 34 bd
       0.04348535 0.08985715 0.0076164226 -0.04410621
000040 84 d3 31 bd 40 ad 9e 3c 73 dd 11 bc e1 4a 8e 3b
       -0.043414608 0.019369721 -0.008902895 0.0043424224
000050 9d 24 d1 bb a9 25 e7 3c 92 48 91 3d f1 0b 22 3d
       -0.0063825385 0.0282162 0.0709392 0.03956217
000060 33 e7 26 bc 81 4c ca bc b5 a8 9f bd 75 4b 05 bc
       -0.010186958 -0.024694683 -0.0779585 -0.008135666
000070 fb ae a1 ba 0f 57 7f 3d d7 35 8f bb 7b f5 61 bd
       -0.0012335473 0.062338885 -0.004370432 -0.05516575
000080 71 d1 49 3d ef 6c 58 3d bb 8c aa 3c 25 ee 55 bd
       0.049272005 0.052838262 0.020819059 -0.052229065
000090 54 1c 20 bc 6b 6b 22 3d 58 26 c9 bc 0f aa 7a bd
       -0.009772379 0.039653223 -0.024554417 -0.061197337
0000a0 28 6b 98 bc 8e 21 42 3a 00 ca a7 3c 89 c2 6e bd
       -0.018605784 0.0007405513 0.020482063 -0.058290992
0000b0 c3 48 64 bd b9 00 e8 3b 4d e4 9c bc 5c 4c 86 3c
       -0.055733453 0.0070801643 -0.019151831 0.016393833
0000c0 6e b8 50 bd 9f c8 78 3c 22 73 25 bc 32 c1 53 bd
       -0.050957136 0.015184551 -0.010098251 -0.051697917
0000d0 db 50 6d bc 9d e2 ae 3c af 2f 55 3d 29 76 a7 bd
       -0.0144846095 0.021348292 0.052047428 -0.08176834
0000e0 56 0b b1 bb 0f 33 9d 3d fb c4 7d 3d ed 5c 1e 3b
       -0.0054029627 0.07675754 0.061955433 0.0024164275
0000f0 ce 8b dd 3b a0 d6 23 3d cf 2b f9 3c aa 6d 63 bc
       0.006761051 0.039999604 0.030416397 -0.013881126
000100 dd c9 a8 3c 53 a7 81 bc 4e 5c 14 bd 1c ec a7 bc
       0.020604068 -0.015826857 -0.03622084 -0.020498328
000110 9b bc a2 bd 8b 59 0e bd 8c f4 f2 3c 5f 2a 25 bd
       -0.0794613 -0.034753364 0.029657625 -0.04032361
000120 58 c5 ac bc 16 10 2a bd f5 e2 b0 bb 40 89 6c bc
       -0.021090195 -0.041519247 -0.005398149 -0.01443702
000130 73 96 48 bd 6e dd 0e bd 6e 4a 2b 3b 41 af 30 3b
       -0.048971605 -0.03487914 0.0026136893 0.0026959928
000140 c3 c2 19 bd 15 00 4a bd d5 1f 51 bd 38 a7 66 3d
       -0.037539255 -0.049316484 -0.051055748 0.056311816
000150 7b 19 52 bb 16 39 87 bc 23 71 8f bc ef 96 00 bd
       -0.0032058645 -0.016506713 -0.017510002 -0.03139394
000160 db da 64 bd bf 7e e1 bc 00 b2 80 3d 46 1c 25 3d
       -0.05587278 -0.027526258 0.06283951 0.040310167
000170 d0 a9 9d 3b 5e b1 9a bb 81 37 84 3d 51 71 49 3d
       0.004811503 -0.004720851 0.06455899 0.049180333
000180 af 7f a4 3d 34 0e 4f 3d 83 66 42 3d c0 d4 78 3b
       0.08032166 0.050550655 0.047461044 0.0037968606
000190 f5 1b bf bc ee f5 12 be 3b 21 57 3b e6 11 4e 3d
       -0.02332876 -0.14351627 0.0032826203 0.050310038
0001a0 19 84 c3 3d e7 f5 8e bc 23 08 c3 bd 5c 9b 90 bc
       0.0954668 -0.01745124 -0.09523036 -0.017652206
0001b0 a7 b0 7e 3d 26 39 fe 3b f8 35 d9 bc b2 91 98 3d
       0.062180188 0.0077582775 -0.026514992 0.07449664
0001c0 6d e6 91 3d 79 4e d3 3a e4 d3 7c 3c a8 db 5d 3c
       0.07124028 0.0016121409 0.015431378 0.01354114
0001d0 31 a4 19 bd 3b 52 13 3d 13 dd cc bb a3 38 3e bd
       -0.0375101 0.035967093 -0.00625194 -0.04644073
0001e0 82 b6 55 3b 2f cc f8 bd 2e b2 80 bd e4 a5 19 bd
       0.0032610004 -0.1214832 -0.06283985 -0.03751172
0001f0 cd ff 56 bd fa 45 89 3c 71 4f 5f 3c c1 63 9a 3d
       -0.052490044 0.016757 0.01362978 0.07538558
000200 ba 4a 48 3d 5a b0 da bc 59 1f fe bb cd a6 8c 3d
       0.04889939 -0.02669542 -0.007755202 0.06867752
000210 7a b6 43 3d 17 21 07 bc 7a 4f 1d 3d b0 aa 92 3c
       0.047781445 -0.008247635 0.038405873 0.017903656
000220 d5 1d cc 3d 13 cc 75 3d 48 d7 65 3d 1c 34 96 3c
       0.099666275 0.060009073 0.05611351 0.018335395
000230 50 d2 26 bd f5 87 54 3d b3 3c e6 bb 58 6f 89 bd
       -0.040727913 0.05188747 -0.007026279 -0.0671069
000240 72 0f 50 bd 0e 54 c6 bd 29 e0 bd bd 7a 30 a9 bd
       -0.05079598 -0.09684001 -0.09271271 -0.08261199
000250 59 63 c4 3c b3 b7 37 bd c4 54 1a bc be 0f 87 3c
       0.023973154 -0.044852924 -0.009419624 0.016486999
000260 7d 08 00 3d f3 e7 ce bc d9 6a ef 3c 28 b6 4d 3d
       0.031258095 -0.025257086 0.029225754 0.050222546
000270 1c 32 28 bd 4f 56 9f 3d c9 b9 bb bc c8 5a 77 bc
       -0.041063413 0.07780134 -0.022915738 -0.0150973275
000280 d9 26 62 bd b8 5d 56 3d 0a b9 6e 3c cb 7c 2f 3d
       -0.05521283 0.05233547 0.014570484 0.04284362
000290 9b b3 0b bc ed 4c c0 3c 28 ce e1 bc 44 36 2e bd
       -0.008526708 0.023474181 -0.027564123 -0.04253222
0002a0 c5 63 80 3c 26 fb 2d bc e6 57 6b 3c bd d2 a1 bc
       0.015672574 -0.0106189605 0.014364218 -0.019753808
0002b0 08 db af 3c 12 68 b5 3c 99 f0 d4 3a 63 dd 21 bd
       0.021466747 0.022144351 0.001624602 -0.03951777
0002c0 b6 aa 1d 3d 9f 28 03 bd 6c 17 48 3b d5 47 bb 3d
       0.03849288 -0.03202116 0.0030531539 0.0914456
0002d0 17 58 08 bd 99 45 bd 3d 25 63 99 bd fa 14 7a 3d
       -0.033287134 0.0924179 -0.074896134 0.06105516
0002e0 55 eb 2f 3d b5 41 13 3b cf ba 52 bd a6 ef 21 3d
       0.04294904 0.0022469584 -0.051447686 0.039535187
0002f0 92 8b d3 39 94 8f ff bc 1f 8f b2 3c 92 ae e2 3c
       0.00040349044 -0.031196393 0.021796761 0.027671132
000300 6a 55 d9 3d 0e c3 86 3d a5 01 de 3d 14 fd 8e 3d
       0.106119946 0.065801725 0.108401574 0.069818646
000310 62 a9 7b ba 5e c2 9f bc 06 4b 27 3d d3 0c 5d bd
       -0.000960013 -0.019501861 0.040843032 -0.05396731
000320 37 5b 24 bc bc f3 8e bd 13 aa 45 3d c5 1e 03 3d
       -0.010031513 -0.069800824 0.0482579 0.032011766
000330 39 ec be bc d6 03 69 3b 30 46 55 bd d0 a0 dc bc
       -0.023306 0.0035555265 -0.05206889 -0.02693215
000340 a0 14 e6 3c bf 8a 69 bc 97 19 7b 3c 88 e3 2a 3c
       0.028086007 -0.014254271 0.015325925 0.010430224
000350 3e 6b a6 3d f3 e1 85 3d 2c 38 92 3d cd 8d 30 3d
       0.081259236 0.06537237 0.0713962 0.04310398
000360 ec 49 40 bd 4f f8 c9 3c d3 40 9e bb 79 de 9a bd
       -0.046945497 0.024654536 -0.004829505 -0.075619645
000370 41 55 e9 bc cd 05 76 bd 47 d1 9b 3b e0 89 e9 38
       -0.028483035 -0.060064126 0.0047551724 0.00011135987
000380 ce d6 d6 3c 18 3f f7 bc f7 e7 b2 bd 50 3b 92 3d
       0.026225474 -0.030181453 -0.0873565 0.07140219
000390 6c 08 3c 3d f2 8e 9e 3c 8d 52 fa ba af fe 49 bd
       0.04590647 0.019355271 -0.0019098088 -0.04931515
0003a0 00 6c 20 3d 01 d8 54 bd e3 04 cb 3b c3 bd c7 3c
       0.039165497 -0.05196381 0.006195651 0.024382478
0003b0 eb ff 8a 3d da 63 c1 3a 0c 9c b8 bc 72 81 2a 3d
       0.06787094 0.001475449 -0.022535346 0.041627355
0003c0 15 a9 15 bd e6 1f 88 39 df 61 37 bc 5c 1e 12 3a
       -0.036538202 0.00025963708 -0.011192768 0.0005573982
0003d0 dd da a6 bc 1f 2c 97 bd eb fe 6d bd 30 5e 6a bd
       -0.020368034 -0.07381462 -0.058104437 -0.05721873
0003e0 d1 6e 08 3d 64 65 36 bd 4a 59 33 bd c2 12 a3 3c
       0.033308808 -0.044530287 -0.043786325 0.019906405
0003f0 b5 d5 5a bd bf 5b 18 3d ea 22 07 3d f5 38 81 bd
       -0.053426463 0.03719687 0.03299228 -0.06309692

conv2.bias f4 [20]
000000 a2 30 05 3d 35 77 46 bc cc ab 38 3d 2b f3 96 bc
       0.032517083 -0.012113382 0.045085713 -0.018426498
000010 54 c0 25 bc 13 28 8b bc 04 b4 48 bd ec 23 74 bc
       -0.010116655 -0.016986882 -0.0489998 -0.014901143
000020 db d1 3c bd 4d a8 b4 bc b2 cf c8 3a cc b7 5a bd
       -0.04609857 -0.022052908 0.0015320687 -0.05339794
000030 19 3f 50 bd c4 83 75 3d 43 23 1f bd 98 9c 87 bd
       -0.050841425 0.059940115 -0.038851988 -0.06621665
000040 4d 22 bd bb f8 fd 81 bd d1 3a 81 bd d0 b7 30 3c
       -0.0057719112 -0.06347269 -0.063100465 0.010786012

fc1.weight f4 [50, 320]
000000 6e 6d 7e bd 72 91 30 bb 5b 34 7b 3c a1 33 d5 bc
       -0.06211608 -0.002694216 0.015332307 -0.026025595
000010 5c 88 52 3d 46 e4 b6 bc 6c 6e 01 3d 1a 3a 4c bc
       0.051399574 -0.022325646 0.031599447 -0.012465024
000020 2c e0 da bb a3 67 f4 3c c0 90 43 3d 6c 1d 1c 3d
       -0.0066795554 0.029834574 0.047745466 0.038113996
000030 1f 02 ad 3c f9 a7 ac bd 5c 46 ea 3a 17 26 a6 3b
       0.021119175 -0.08430476 0.0017873752 0.0050704586
000040 8b 65 59 bd 4f 8a e2 3c 34 47 cc bc 14 a2 e6 bb
       -0.053075355 0.027653841 -0.024936296 -0.007038364
000050 37 3c 69 3c 59 e7 43 bc cf f7 fd 3c 58 cb b3 bc
       0.014235548 -0.011957013 0.031001953 -0.021947548
000060 91 b6 1d 3a be ab 97 bd 1d 20 ef 3c 4f cb 69 3c
       0.0006016279 -0.07405804 0.029190117 0.014269664
000070 dd f0 8e bc 23 15 5e bd 0d 31 c4 3c 6c 39 c1 3c
       -0.017448837 -0.054219376 0.02394917 0.023586951
000080 52 65 2e bd dc 05 15 bc a1 ed 77 bd b3 64 9a bd
       -0.042577095 -0.009095635 -0.060529355 -0.07538738
000090 21 62 a2 ba c1 66 3b 3c bd d7 22 3d d7 13 3a 3d
       -0.0012388864 0.011438073 0.039756525 0.045429077
0000a0 4c c7 4e 3d 35 b8 98 bc 22 13 d5 bc d2 36 0a bd
       0.050483033 -0.018642524 -0.0260101 -0.033743687
0000b0 82 a7 ba bb e2 42 41 bd 37 ba 6f 3d 66 7f 39 bd
       -0.005696238 -0.047182925 0.058527198 -0.045287512
0000c0 4c 73 1a bc 36 9b 1f 3d 68 2a 4f 3d 46 d1 2a 3d
       -0.009426903 0.03896638 0.05057755 0.041703485
0000d0 1b a1 1b bd f3 bc 99 bb db 5e 26 bd f6 78 42 3d
       -0.03799544 -0.004691714 -0.040617805 0.04747864
0000e0 55 31 cb bc 42 11 58 bd 79 1f 8d bd a1 d2 72 bd
       -0.024803797 -0.052750833 -0.068907686 -0.059282903
0000f0 af c9 37 bd 14 99 be bc 74 cb ea 3c 5d 0d 96 bd
       -0.044870075 -0.023266353 0.028661467 -0.073267676
000100 df eb 90 3c 1b 44 78 3c 55 df 9f 3b 7a 6c a3 bc
       0.017690597 0.015152956 0.004878918 -0.019949187
000110 76 22 38 bc b5 64 71 bc 1d 99 76 bd 32 1e d1 bc
       -0.011238685 -0.014733483 -0.060204614 -0.025527094
000120 31 e0 a6 3a a8 f7 af bc 73 cd f8 3c 95 d7 5a 3d
       0.0012731609 -0.021480396 0.030371403 0.05342825
000130 35 3e 2a 39 10 bb 52 3d 1d 90 88 3c 38 f1 fd ba
       0.00016235637 0.051447928 0.016670281 -0.0019374257
000140 b4 2f b1 bc 23 60 99 3d cd 0e da bb 6a a1 bc bd
       -0.021629192 0.0748904 -0.0066545964 -0.09210475
000150 a7 10 0c bd 59 dc 90 bb d5 e2 18 bd 84 5b cb ba
       -0.03419557 -0.0044207987 -0.0373257 -0.0015514945
000160 72 96 ef bc c7 7f aa 3b f7 3d a1 3b 30 5f db ba
       -0.029246543 0.0052032205 0.004920717 -0.0016736742
000170 e9 e8 fe bb 2a c9 5e 3d 6b c8 97 3d f9 77 2b bc
       -0.00777923 0.054391064 0.074112736 -0.010465615
000180 24 e7 30 3b 4b 6c fa 3c 12 8b 10 bc 86 6e 50 bc
       0.002699324 0.030569216 -0.008822219 -0.012721663
000190 9d 16 3f 3d 54 a1 0e bc dd 1e 70 bc da e9 7a 3d
       0.046652425 -0.008705456 -0.014655796 0.061258174
0001a0 f5 9e 6d 3a ee 62 2f bd 4e 2e 4f 3d 4e 64 64 3d
       0.0009064519 -0.042818956 0.05058127 0.05575972
0001b0 06 c6 51 3d e2 ec 9f 3c ef 95 25 3c ae 64 1d 3d
       0.05121424 0.019522134 0.010106548 0.038426094
0001c0 e2 22 97 ba 74 dd 3b bd ea 8c 70 3d b8 fb 8e bc
       -0.0011530782 -0.04586549 0.058728136 -0.017454013
0001d0 10 c1 9d bb 34 80 64 bc 85 98 d7 bc eb a7 fc 3c
       -0.0048142746 -0.013946582 -0.026317844 0.030841788
0001e0 71 fb 65 3c 76 99 74 3c 6d 51 b3 bd 62 b1 db 3c
       0.014036999 0.014929166 -0.08755765 0.026817981
0001f0 68 de 8f bb 47 f2 36 bd a3 32 b8 bc 58 c1 42 3b
       -0.0043905266 -0.044664647 -0.022485083 0.0029717293
000200 88 cd 30 bd 61 b3 ad bb 2c 66 d8 3c 18 40 03 bd
       -0.04316476 -0.0053009246 0.026415907 -0.032043546
000210 7d 51 93 3b a9 27 fe 3c 63 1e ba 3c 87 d6 e0 3c
       0.004495798 0.03102477 0.022719568 0.027446045
000220 97 c9 29 3d dc bc de bc 43 99 c1 bc 3e 61 0e 3d
       0.041452017 -0.027189665 -0.023632651 0.034760706
000230 ec b4 60 bc 95 b2 8e 3c f0 09 2f bd 2f db d2 bc
       -0.01371501 0.017419139 -0.042734087 -0.02573928
000240 61 f6 fb bc 71 5c 0f bd 38 f5 5f bd a4 30 17 3c
       -0.030757131 -0.03500027 -0.05467722 0.009227905
000250 56 8f 08 3d 41 68 dd bc be 71 ec 3a d8 26 53 bd
       0.03333982 -0.027027251 0.0018039269 -0.051550716
000260 25 2b 7b 3c 4f 47 58 bc 11 a9 b9 3b 4a f5 7d 3d
       0.015330111 -0.013200595 0.0056659062 0.062001504
000270 aa a8 02 3d a5 aa e4 3c 72 65 37 3d 65 26 e3 3c
       0.03189913 0.0279134 0.04477448 0.027728269
000280 d3 42 5d 3b b2 8f b3 bc 7c fd 73 bd 4c 35 9a 3c
       0.0033761754 -0.021919105 -0.059567913 0.018824242
000290 1d d6 6e 3c 83 f9 7f 3c 33 20 89 3d 9c a9 67 3c
       0.014577416 0.015623453 0.06695595 0.014139559
0002a0 c0 c1 47 bd 79 6d 07 3d 2e 8a 7c bc 9f 11 49 3d
       -0.04876876 0.033063386 -0.015413804 0.04908907
0002b0 33 77 3b 3d a8 c1 e9 3c 77 43 32 3d 6d ad 91 bc
       0.045767974 0.028534725 0.04352137 -0.017782891
0002c0 e4 8b fc bc 20 0d e8 bd 4a f2 85 bd 0e e0 a5 bd
       -0.030828424 -0.113306284 -0.065403536 -0.08099376
0002d0 36 10 bc 3c c5 aa 3e 3d 7e 57 80 bb 8c 27 87 bd
       0.022956949 0.046549577 -0.00391668 -0.0659934
0002e0 1d 85 d6 3c 01 8d 0e bd 57 4d 23 3c 9a ba ea 3c
       0.02618652 -0.03480244 0.00996717 0.028653432
0002f0 40 d8 db 3c f3 b0 3a 3d ac b6 78 bc f1 10 81 3d
       0.026836514 0.04557891 -0.015180271 0.063020594
000300 9f 68 08 bd 44 be 3b 3c 14 2d b5 bc d0 82 2b 3b
       -0.0333029 0.011458937 -0.022116221 0.00261705
000310 21 25 47 3b 3a 82 34 3d eb 42 dc 3c d6 e6 81 3c
       0.003038712 0.044069506 0.026887378 0.015857141
000320 12 6c 84 bc a0 a5 8f bd 41 f1 98 bc 59 03 17 bb
       -0.016164813 -0.07014012 -0.018669726 -0.0023042767
000330 b6 bf 80 3c b4 1e 8d b9 ed 7f 8c 3c 41 ba e0 bc
       0.015716415 -0.0002691649 0.017150844 -0.027432563
000340 6a 99 c7 bc 7a af 80 3d 8c fc 2f 3d da 6c 61 3c
       -0.024365146 0.062834695 0.042965457 0.013758862
000350 cf f1 75 3b dd fc bb bd 90 d0 2b bd 65 ea 05 bd
       0.0037528162 -0.09179089 -0.041946948 -0.03269424
000360 5b 76 ba bd f7 82 25 3c d5 a3 0f ba 13 da 7b bd
       -0.09104606 0.010102025 -0.000547943 -0.06148727
000370 eb bf f6 bd cb 68 8a 3b f4 7b 2d 3b ea 10 73 bd
       -0.12048324 0.004223918 0.0026471587 -0.059342302
000380 af c2 a5 3c 5f cb 1f bc 59 05 c5 bd c8 bd b0 bd
       0.020234434 -0.009753077 -0.096201606 -0.08629948
000390 cc 4e 1c 3c bd 57 32 bd 5e 87 5f bd 2f 6b 9b bb
       0.009540271 -0.043540705 -0.054572456 -0.004743002
0003a0 81 dc 5e bc 66 fc 9f 3d b8 ea 2c 3b e4 64 8e 3c
       -0.013602377 0.07811813 0.002638502 0.017382093
0003b0 8e a4 ea 3c 48 18 43 3d 0a c7 95 bb 05 5d 84 3d
       0.028642919 0.04763058 -0.0045708464 0.064630546
0003c0 bf 27 24 3d cb 74 82 3d 9e f8 a6 bc 67 8b 5f bd
       0.040076967 0.06369933 -0.020382222 -0.054576304
0003d0 a4 c1 82 bd 4d 85 42 bc 7f 48 87 3c 90 85 bc 3d
       -0.0638459 -0.011872602 0.016514061 0.092051625
0003e0 e5 73 fd 3b f8 a6 18 bb 28 e9 c1 3c e7 60 94 bc
       0.007734763 -0.002329288 0.023670748 -0.018112613
0003f0 26 fd c8 3c 76 e0 1b bd 78 5c 39 bd ed 4b 7d bd
       0.024534773 -0.03805586 -0.0452542 -0.061839987

fc1.bias f4 [50]
000000 03 98 4a 3d c0 63 09 3d 9e 3f 13 bb a2 ce 39 bb
       0.049461376 0.033542395 -0.0022468339 -0.0028351923
000010 fc 4b a3 3c c5 51 20 bc 0e a4 6b 3b f1 f5 f1 bc
       0.019933693 -0.00978512 0.0035955939 -0.02953622
000020 5c fe 81 3c 37 d1 2e 3c a9 22 c8 3c 00 14 57 3d
       0.015868358 0.010669998 0.02443059 0.052509308
000030 97 24 ad bc 7c 2d 1b 3a 14 3f 8f bb 5b 4e 3b bd
       -0.021135611 0.00059195585 -0.004371533 -0.045729022
000040 40 8e 74 3d 55 b9 b9 3c ab 74 90 3d 11 6b df bc
       0.059705973 0.022671381 0.07053503 -0.027272733
000050 17 f3 b3 3c a4 e7 a7 3c 7b 29 f4 bc 58 1c 2b 3d
       0.0219665 0.020496197 -0.029804936 0.041775078
000060 4e cb 27 3d 01 2a 43 bb fd f4 9d 3d 27 fb a6 bc
       0.04096537 -0.0029779675 0.077127434 -0.02038343
000070 85 99 14 bd 47 f4 0a bd 2b bd fa bc bd be 34 3d
       -0.03627922 -0.033924367 -0.03060778 0.044127215
000080 22 8f 08 3c 77 08 01 bd 5d 86 24 bd 50 ac a2 3d
       0.008334907 -0.031502213 -0.0401672 0.07943022
000090 6d 63 1c 3c 91 01 72 bd be 85 db 3c f6 8e dc bc
       0.009545189 -0.059083525 0.026797172 -0.026923638
0000a0 25 e0 80 3c 63 24 95 3d b3 5c 1f 3d 23 f9 0c bd
       0.01573188 0.07282331 0.038906764 -0.034417283
0000b0 b2 34 a6 bc f5 ec bf 3c e6 28 28 bd 60 ad 53 bd
       -0.020288799 0.02342842 -0.04105463 -0.051679015
0000c0 58 6a 5b 3d f3 df fe 3c
       0.053568214 0.031112647

fc2.weight f4 [10, 50]
000000 7f 67 2c 3e c8 b0 e4 bd 32 90 19 3e 0e c2 b3 3d
       0.16836356 -0.11166531 0.14996412 0.08777247
000010 35 da fc bd 34 16 b7 bc ed 0f 3b be 47 1c 13 be
       -0.12346307 -0.022349454 -0.18267794 -0.14366256
000020 3a 46 9c bd e4 92 ed bd b0 b0 60 be 84 2d e8 bd
       -0.07630582 -0.11600283 -0.21942401 -0.113368064
000030 cc 3d ac bd 77 b9 ea 3d 44 aa 63 3e fc 36 21 3e
       -0.08410224 0.11461156 0.2223292 0.15743631
000040 e4 c9 5b bc 0f 53 4c 3e 0b 95 34 3e 95 19 b2 bd
       -0.013414834 0.1995356 0.1763498 -0.08696286
000050 cb 7f 93 bd c9 02 02 be 82 28 aa bd 0f d7 4f be
       -0.07202109 -0.12696375 -0.083085075 -0.20296882
000060 92 5e ca bd ea 9b 52 be 1e 56 47 be 9c 02 72 be
       -0.09881319 -0.20567289 -0.19466445 -0.23633808
000070 36 e3 a7 3d 68 90 91 3e 4d 56 3f be 22 ce c7 bd
       0.08197634 0.28430486 -0.18685265 -0.097561136
000080 68 08 4e 3e 23 10 ea 3d b7 16 e5 bd e9 b6 3d 3e
       0.20120394 0.11428859 -0.11185973 0.18526806
000090 e8 37 08 3e ec d3 c3 3d c4 99 4f 39 c1 42 1d be
       0.13302577 0.09561905 0.0001979834 -0.15357496
0000a0 e0 af e8 bd 1d d7 4b be 6f 0e d9 3d bb 31 bd bd
       -0.113616705 -0.19906278 0.10598456 -0.09238001
0000b0 2e 53 46 3d 8a 19 76 3e c1 f3 72 bd 05 a4 fa bc
       0.04841917 0.2403318 -0.059314493 -0.030595789
0000c0 7f 15 3d 3d 2d f8 16 3d a3 81 80 bd c5 1d 16 3e
       0.04616308 0.036857773 -0.06274726 0.14659794
0000d0 18 65 3d be e9 f2 b4 3d 0a ca c4 3d 9a 98 37 3e
       -0.18495595 0.08835394 0.096088484 0.17929307
0000e0 5c 74 54 be db db 9d 3d d6 19 5b 3c 65 70 12 be
       -0.20747513 0.0770795 0.013372859 -0.14300688
0000f0 ea a2 22 3e 88 00 52 3e 96 c8 01 be 8c db 3b be
       0.1588246 0.20508015 -0.12674174 -0.18345469
000100 01 f8 a7 bc 9b a3 7a be 0b dc 15 3e d9 82 a4 bb
       -0.020504 -0.24476473 0.14634721 -0.005020481
000110 cc e6 5d be 5a 85 d0 3b 99 2f f7 bd 83 67 62 bb
       -0.21670073 0.006363553 -0.120696254 -0.003454656
000120 41 53 29 3e aa d9 3c 3e 57 f5 1e 3e 07 6e 88 be
       0.16535665 0.18442407 0.15523277 -0.26646444
000130 24 1f 86 be 53 16 20 3e 7f 8a 26 3e f7 e5 86 3d
       -0.26195633 0.15633516 0.1626377 0.06586831
000140 34 bf 24 3e d8 f9 9d bd 78 96 3c be e7 f7 1d be
       0.16088563 -0.077136695 -0.18416774 -0.15426598
000150 ff b6 08 3e 35 6d 12 3d 3f 92 01 be 87 95 6c bd
       0.13351057 0.03574868 -0.12653445 -0.057759788
000160 0d 77 01 3e 5e b4 1e 3e 87 fe 89 bd 08 b3 14 3e
       0.1264307 0.15498492 -0.06738 0.1452142
000170 77 dc bd bd 16 17 5e be 0b 53 ef 3d a5 4f 07 be
       -0.09270566 -0.21688494 0.11685761 -0.13213976
000180 ba 8c 1f be c9 49 33 3e 85 6a 68 be 1b e8 c7 3c
       -0.15581027 0.17508616 -0.22696884 0.024402669
000190 77 0d 0a bd 4a 52 69 bc 50 b9 f6 bd 5e 5b 90 bd
       -0.033704247 -0.014240811 -0.12047064 -0.07048677
0001a0 e2 a8 b9 bd dd 6b 09 3e 92 4c da 3d 0a d1 2b bc
       -0.09065415 0.13420053 0.10659136 -0.0104868505
0001b0 02 fd 61 3e 4c e8 32 3d fb 4f 82 bd 90 86 78 3e
       0.22069171 0.043678567 -0.06362911 0.24270082
0001c0 9f ea 89 3d a3 0a ff 3d d9 15 29 3e cb fc e9 3d
       0.067342035 0.12453201 0.1651224 0.114251696
0001d0 10 cf 01 3d 38 d9 d0 bc 2c b3 dc bd f6 94 0b be
       0.03169161 -0.025494203 -0.10776362 -0.13631043
0001e0 22 0c 27 bd 6d 7b d1 3d dc 23 07 be d1 0b 2b be
       -0.040783055 0.1022862 -0.13197273 -0.16703726
0001f0 30 f3 cf bd 7b 4f b4 bd 1b 35 19 be b7 b3 c0 3d
       -0.10153806 -0.08804222 -0.14961664 0.09409278
000200 cb 1f 53 be 8e 8e 27 bc 1f 06 09 be 64 ca 94 bd
       -0.20617597 -0.010226859 -0.13381241 -0.072651654
000210 b9 b6 9d 3d 96 cf bb bd cb 24 02 3e fd d5 11 3e
       0.07700867 -0.09170453 0.12709348 0.14241786
000220 42 65 ba bd c8 f8 0a be 84 9c 0a 3e b8 73 c8 3d
       -0.09101345 -0.13571465 0.13536268 0.097876966
000230 89 53 16 3e e3 59 31 3e 86 02 be bd 1c 80 69 bd
       0.14680304 0.17319445 -0.09277825 -0.05700694
000240 ff df 42 3d cf cc 41 3e 40 39 88 3d b6 59 07 3e
       0.0475769 0.18925785 0.066515446 0.13217816
000250 21 4b 0c be 15 91 48 3e 91 d9 15 bd 25 68 34 3e
       -0.13700534 0.19586594 -0.03658444 0.17617853
000260 f4 86 01 3e 69 33 e4 bd 17 98 3e 3c b4 01 31 be
       0.12649137 -0.11142618 0.011632941 -0.17285806
000270 a9 66 9c 3d f7 30 bd 3d dd 25 02 3c ca 61 8a 3b
       0.07636768 0.09237855 0.007943598 0.004223083
000280 c7 26 3e bd 67 70 6c 3e a6 18 1d be c0 e3 10 3d
       -0.0464237 0.23089753 -0.15341434 0.03537345
000290 da 72 a7 3c 62 f1 8a bd ff c8 13 be 5d 73 85 bc
       0.020440508 -0.06784321 -0.14432143 -0.016290361
0002a0 88 ec e3 bd 0a b9 19 3e 62 13 3d 3e 1b e4 5b 3e
       -0.11129099 0.15011993 0.18464425 0.21473734
0002b0 09 f6 86 3d c1 ea a6 bd cd 64 1b be ca b8 fe bd
       0.06589896 -0.081502445 -0.15175171 -0.124375895
0002c0 a4 44 07 3e 28 8d 97 bd b0 0d 02 3e cc f7 04 be
       0.13209778 -0.0739997 0.12700534 -0.12985152
0002d0 27 41 7c be 59 d7 3e 3e 8d 9a e0 bd 85 b0 e1 3d
       -0.24634229 0.18636836 -0.10966978 0.110199966
0002e0 4f aa 9b 3d 55 e2 aa 3d 47 c8 29 3e 27 70 aa 3c
       0.07600843 0.08343951 0.16580306 0.020805432
0002f0 a6 6d 37 be 26 d1 3a bd 9a d1 0e 3e a1 e0 2b 3e
       -0.17912921 -0.045609616 0.13947144 0.16784908
000300 d9 c8 23 be 47 31 07 3e 44 93 bb 3d 5e 46 ac 3c
       -0.15994586 0.13202392 0.09158948 0.021029647
000310 98 c6 fe bd 04 21 99 bd dc 07 9c bd 50 27 33 3e
       -0.124402225 -0.07477 -0.076186866 0.17495465
000320 db 82 ae bc 3e 2a 8e 3c 2d aa 01 bd 64 28 44 3d
       -0.021302631 0.017354127 -0.031656433 0.047890082
000330 96 d7 b9 3d 3d ef 2c 3e 82 a2 1c 3e db f2 0c be
       0.09074323 0.16888137 0.15296367 -0.13764517
000340 87 73 9f bd cc 73 08 be 26 e6 45 3e 15 2b 29 bb
       -0.07785707 -0.13325423 0.19326076 -0.0025813032
000350 ff 19 5f 3e e9 bf 66 be b1 b7 73 bd 9d 84 08 3e
       0.2178726 -0.22534145 -0.059501354 0.13331838
000360 0e e0 c0 bd 28 7b 28 be 5e 47 b1 bd f8 4a 0f be
       -0.09417735 -0.1645323 -0.0865619 -0.13993442
000370 e0 17 22 be db 51 1e be d9 78 43 3e 1c cd 33 3e
       -0.1582942 -0.15460913 0.19089068 0.17558712
000380 bf c1 08 3e 09 de 32 3e 91 0f 3f 3d c6 24 1a bd
       0.13355158 0.17467512 0.046645705 -0.037632726
000390 bb 87 5c 3d 2d 35 1a bd e9 40 f7 3d ba dd 3c 3e
       0.05384038 -0.03764837 0.120729275 0.18443957
0003a0 8a 24 2e be aa 14 72 be dd dc d9 bd 19 fe 09 be
       -0.17006126 -0.23640695 -0.106378295 -0.13475837
0003b0 db 83 a0 bd b0 16 8c 3e ab 4e 9c 3d 68 31 94 bd
       -0.078376494 0.2736106 0.07632192 -0.07235986
0003c0 c8 4c 5d be 76 93 06 be ab 6e 0a 3e 6c 8b f3 3c
       -0.21611321 -0.1314219 0.13518779 0.029729567
0003d0 42 f5 13 be cc 4c a6 bc 5b c8 cc bd d4 28 1e be
       -0.14449027 -0.020300291 -0.09999152 -0.15445262
0003e0 7e 4f 49 3e 19 5a 01 be 24 bc f1 3c 6e 6e e0 bd
       0.1965923 -0.12632026 0.029508658 -0.10958563
0003f0 60 9f 84 3c ba fc 1c be 37 13 2b bc e5 2e 94 bd
       0.016189277 -0.15330783 -0.010441593 -0.07235507

fc2.bias f4 [10]
000000 fd 6c 90 bd 46 92 88 3d d4 7a 24 bd d4 ed 25 be
       -0.07052038 0.066685244 -0.0401562 -0.16204005
000010 9f d7 4f bc 24 fb c2 3d 21 4f cf bd 60 77 c1 bd
       -0.012685685 0.095205575 -0.101225145 -0.09446597
000020 a9 ec 8d 3d 28 aa 46 bd
       0.06929905 -0.048502117
